models/language.pt (torch, 673761 bytes, 149 tensors)

decode.inp_embedding.embedding.weight f4 [308, 32]
00000000: ac00 e1bf 574a c93f 90f9 30bf 714e e23d
00000010: 918f 463f 5de8 a73e c40c 72bf 02a3 c83f
00000020: cbd2 183f cf85 77be 154b c03e c8ca fa3e
00000030: a264 57be 8819 e23e 22f8 403f 4587 b9bf
00000040: f307 273f 1725 a53e e035 ac3d 4ed9 35bf
00000050: 5208 943f 5bb5 b2be 690d d1be 823d 6ebf
00000060: bd45 103f b4db 593f 171a 0fc0 2a39 643f
00000070: 1a6b 11c0 89d3 0e3e 10a4 d7bf 649d ec3e
00000080: 1a06 973f bfa2 2e3f ca3f 80bf 51b4 e73e
00000090: 9f1f f03f 49f2 71bf 7436 2f3f dfbe a93f
000000a0: 8610 343f e82e dabf b9ff 4b3f cc33 bf3e
000000b0: 1ccf dbbd f2b8 68bf 14e8 c63e 1d70 7c3f
000000c0: f8b5 c4bf b7a7 733d a330 0cbf 2f6c d4be
000000d0: 8f60 2fbf a827 603f 7550 393f 8f12 d2bf
000000e0: 9b20 b13e 97f1 93bf 8883 a03e c5de f6be
000000f0: e14c 6abe 5dff 94bf d90a fe3f 3648 883f
00000100: 9cf3 573f 25c6 15be 04ff 70bf a384 8b3f
00000110: 1a85 0240 fcf3 81be e01c 35bf 826a 87be
00000120: 47ce 1d3e 610e 9abf 54ef 04bf 5d0f e63e
00000130: 62c1 7a3f 0084 f73f 9765 f33d 6aa4 53bc
00000140: 7376 263f 6a5b fdbe 2c4b b7be ad12 0c3e
00000150: ef55 0a3f 34cb ec3e ec4d 013f 7764 1b3d
00000160: d846 82bf 3bb7 38bf 00bc 9a3e a19a 0d40
00000170: cfb1 323b 7d84 1bbf 9e0b 3b3f 7383 4c3f
00000180: 070c 21be f4e8 4c3e 6378 90be c30d 0abf
00000190: 07f9 63bf 6b07 69bf a46b 86bf 01c5 0ec0
000001a0: 49a6 8dbf 4824 3ec0 eb51 c63e 44bb 093f
000001b0: 77c7 f9bf ae61 35c0 96e5 183f 1831 bfbf
000001c0: f935 96bf 68b9 683f 3970 8dbe d063 173e
000001d0: 853a 403f dc2b 293f ed8f a23f d716 ca3f
000001e0: 6342 3bbf 7627 253f 8c24 0d3f 1019 17bc
000001f0: 0860 b0bf 48db a1be dcd9 b23c 1ea2 853e
00000200: b2f1 7b3f 814f cd3e 2fe4 74bf feaa 61bf
00000210: f6ce a03f 4c6e 5bbf cea1 77bf 8e2c d03f
00000220: 2fe5 1d3d 3af1 f4be b19f af3d 06c3 f1bd
00000230: 6d58 db3f f8ba fdbe 7b82 25bf 8436 b1bf
00000240: af92 a2bf 10ef 953d 714a 2c3e 3724 8bbf
00000250: 1284 093f bfc7 0abf bc07 82bf d77c b23f
00000260: ffe6 dabe 0b43 eabe 2f93 893f efcd 3cbf
00000270: 4757 9b3d c950 a33f 7820 203d 1b2f aebf
00000280: d123 163e 86c4 cfbf 9a88 0d40 c4bd 5c3f
00000290: abc4 f03e 49dd 263e 27f2 09bf 8d4d e93e
000002a0: a982 a63e ccb4 893f c485 93bf fe0b eabf
000002b0: 3784 4a40 d856 dfbd eef0 1840 11f0 acbe
000002c0: 7c32 85bf aff4 7cbf c930 8f3f 8927 a93f
000002d0: 927a fe3d cf58 17bf 3fa4 48be 366d f63e
000002e0: ac1d f1be 188f a73e 6360 6dbe 9121 14bf
000002f0: 486e 983f 3aef 5d3f d20b dbbf 8339 1bbf
00000300: 64a2 3bbf 4b2d 153e a970 c93c 7642 1d3f
00000310: 1ba7 283f 1b07 203e 5da5 013f 6b3f 22bf
00000320: e8c6 0cbf b8ee a33e 8586 e03f 30fb 303f
00000330: 9019 14bf 9f89 733f 66c9 58bf e123 3dbf
00000340: cd31 3a3f 20fa e43e ab8e 58bf d375 893f
00000350: ca56 ecbe 16c4 afbe ae91 0940 6465 19bf
00000360: 30b0 9dbf e0fc c63f 69c6 8ebf 5f39 e53f
00000370: 4bef 68bf c9a6 c23e beee ebbe dc4c 8d3f
00000380: 35fd 1cbf 8031 2ebe 8d23 9e3e c598 9ebf
00000390: f0a4 a43f 1cbc d3be dd63 c1bf faf1 9f3f
000003a0: 55ae 373f eca1 a9bf df6d 1b40 754a ae3f
000003b0: 53d3 1dbe 50fd 4bbf cccb 4f3f 6b75 f83f
000003c0: 0495 27bf a2a0 cabf d715 2fbf f488 90bf
000003d0: 90ab 9a3f 660c 08bf 783d 4bbc 4125 133f
000003e0: d163 3b3f b1bf 80bf 70a1 703f 59cb 5ebf
000003f0: 2681 4f3f a0ab c43f a762 673d a244 8bbf
-1.757833 1.5725812 -0.691308 0.11050118 0.77562815 0.32794467 -0.9455073 1.5674746
0.59696645 -0.24172138 0.37557283 0.48982835 -0.21034482 0.44160104 0.7537862 -1.4494406
0.65246505 0.3225486 0.08408713 -0.71034706 1.1565039 -0.34903988 -0.40830544 -0.93062603
0.5635641 0.85100865 -2.2359674 0.89149725 -2.272162 0.13947882 -1.6846943 0.4621383
1.1798737 0.6821708 -1.0019467 0.45254758 1.875965 -0.9451032 0.68442464 1.3261374
0.7033771 -1.7045565 0.79687077 0.37344205 -0.10732862 -0.90907204 0.38848937 0.9860857
-1.5368032 0.059486117 -0.54761714 -0.41488788 -0.6850671 0.8756051 0.7238839 -1.6411914
0.34595188 -1.1558102 0.3135035 -0.48216835 -0.2288089 -1.1640431 1.984706 1.0647037
0.84356093 -0.14626367 -0.9413912 1.0899853 2.0393739 -0.25381458 -0.70747185 -0.26448447
0.1541072 -1.2035638 -0.51927686 0.44933596 0.9795133 1.9337158 0.11884611 -0.012917617
0.6502449 -0.49483806 -0.3579954 0.13678999 0.54037374 0.46248782 0.50509524 0.037937608
-1.017787 -0.7215459 0.30221558 2.2125628 0.0027266627 -0.60749036 0.730646 0.79888076
-0.15727244 0.2001074 -0.28216848 -0.5392725 -0.8905186 -0.91026944 -1.0501599 -2.2307742
-1.1066371 -2.9709644 0.38734373 0.5380137 -1.9513997 -2.834087 0.5972532 -1.4936857
-1.1735221 0.9090791 -0.27624682 0.14784169 0.75089294 0.6608255 1.2700173 1.578822
-0.73148173 0.6451334 0.5513389 -0.009222284 -1.3779306 -0.3161261 0.0218324 0.26100248
0.9841567 0.4009972 -0.9566068 -0.8815154 1.256316 -0.85715175 -0.9673127 1.6263597
0.038548645 -0.4784029 0.085753806 -0.11804776 1.713636 -0.49556708 -0.6465222 -1.3844762
-1.2701014 0.07320988 0.16825272 -1.0870427 0.5371715 -0.5421104 -1.015861 1.3944348
-0.4275436 -0.45754275 1.0748042 -0.7375173 0.07585006 1.2759029 0.039093465 -1.3608125
0.146621 -1.6231849 2.2114625 0.8622706 0.47025046 0.16295351 -0.5388512 0.4556698
0.3252156 1.07583 -1.1525197 -1.828491 3.1643198 -0.10905236 2.3897052 -0.33776906
-1.0406032 -0.9881086 1.1186763 1.321519 0.12425722 -0.59119886 -0.19593905 0.48130196
-0.4709295 0.3272636 -0.231813 -0.5786372 1.1908655 0.86693156 -1.7112982 -0.6063463
-0.73294663 0.14568059 0.024589853 0.61429536 0.6587998 0.1562771 0.5064295 -0.6337802
-0.54991007 0.32018065 1.7541052 0.6913328 -0.57851505 0.9513187 -0.8468231 -0.7388287
0.7273224 0.4472208 -0.84592694 1.0739082 -0.46159965 -0.3432929 2.1495166 -0.59920335
-1.2319393 1.5545921 -1.11543 1.7908133 -0.9099013 0.38017872 -0.46080583 1.1039081
-0.61323863 -0.1701107 0.30886498 -1.2390372 1.2862835 -0.41354454 -1.5108601 1.249572
0.71750385 -1.325254 2.428581 1.3616472 -0.15412645 -0.796834 0.81170344 1.9410833
-0.65461755 -1.5830271 -0.683927 -1.1291795 1.2083607 -0.5314392 -0.012404792 0.5747872
0.7319918 -1.00585 0.93996334 -0.87029034 0.8105644 1.5364876 0.056490567 -1.088032

decode.layers.0.self_attention_block.w_q.weight f4 [32, 32]
00000000: 47ea a33d 7c21 0f3d eb48 f63d 5de9 f4bd
00000010: f42f 9b3d 06e8 a7bd 61cf d53d 82a7 923d
00000020: f422 8abd 3b66 113d d178 d5bd 5517 aebd
00000030: 7694 c83d c2bb b6bd 7a8b c13c 552f 423e
00000040: 1844 82bd aecb bf3d ffa4 343e e787 953d
00000050: c32e f2bd b02b d5bd 2d4f 12bd cf13 513e
00000060: 33da 6c3c 2c37 48bd 23e3 52be aac0 61bd
00000070: 0dcb 22bd b888 1d3d a72e 41bd ab99 583d
00000080: a89f a63d 9258 4c3d 1237 e13d 7936 283e
00000090: 2706 4e3e ed4a 88bd 38a2 42bd 881f 1dbe
000000a0: 01ba ca3c 9b77 afbc 0825 08be 9c04 21be
000000b0: 762e 503e 750b f13d ed12 d03c e5cc a1be
000000c0: 640a 1ebe 2099 a5bd 34b0 233e 92cf 6ebe
000000d0: f2e1 f13d 1f81 2f3c 0148 303d ad09 1ebe
000000e0: 0640 3b3d 4b6e 54be 2622 8c3c 41c4 e1bc
000000f0: 231b 763c d6f4 76be e90e e33d 73b8 723e
00000100: 14ec 5fbe 28f6 993d e89f debc 9161 68be
00000110: 6e2a 3ebe 1eef 443e b0ca 253e b2bf 513d
00000120: ce43 f53d aeb9 2d3e 1706 eabd c8df 37be
00000130: 4d75 cabd 542a a9bd d9cf 213d c21c c53d
00000140: f851 073c f7ca e33d 805b cbbd 6b5f ae3e
00000150: ea0e e8bd 905c 60be fe03 cebd cf13 fa3c
00000160: d263 9b3e 38d6 0b3e cc9c 033e d61b 753d
00000170: be41 573c 8792 213e 05f6 11be 6226 4bbe
00000180: a759 91be 3756 c23d 9010 663e 3b52 c53c
00000190: a96f 21be 7192 513e f339 3d3e 08d2 063e
000001a0: 57e6 afbe a4ce 1f3d 0177 8c3e e125 cf3c
000001b0: b5d4 84be ac06 3bbe 3336 41bd 7f5c ae3e
000001c0: 34c0 6ebd ea80 a53e 83e0 293e 540e ab3d
000001d0: 2eeb 00be 718b 1dbe 44c4 5bbe d32b 983e
000001e0: 5648 693e a2cf 343d 8396 a9be 4e60 82be
000001f0: 127d c7bd c09f 933a 3196 22bc 356e 64be
00000200: d1d4 09be 61dd 91be 57e4 36be 88c6 5f3e
00000210: cd3b 943e 9b57 273d be5e 3dbe 958c 0cbe
00000220: 639b 4cbe bd93 9f3c 7674 e73b 39ae 023e
00000230: 8ce2 243e 11f6 873e 24db 5ebe 0ee5 6abe
00000240: 17b6 1d3e 99b4 4fbd e142 92be 6baa dabd
00000250: 426c 573e 57a8 ed3d 4a49 f5bd d001 bd3c
00000260: f994 3bbd 5192 abbd 2287 bb3e 2395 843e
00000270: 20ee 88be f28b 67be d70f 4a3e 17be 0f3e
00000280: 06f5 de3d deb2 343b b5b0 dcbd 3e02 81bd
00000290: 866d fd3d 0474 2bbe aab7 ae3c 6308 e23c
000002a0: fe3b 453e 80f2 03bd ee85 d33b c12f a6bd
000002b0: 78ee 263e 9847 37bd e158 a9bd f7d1 09be
000002c0: ba02 1c3e 3a00 1d3e 7eb5 2e3e 8dda dabd
000002d0: f8df 303e 7fa6 e0bc d985 ec3c 8f49 5fbc
000002e0: ab08 b13d 862d 07be 7b1e acbd 89d5 303e
000002f0: 20bb 87bd 7965 4abd befc ef3d 0407 2ebc
00000300: 4c8c acbd f9f3 b3be b42d e5bc e7b4 373e
00000310: 2a65 dc3d 8bcf 14be 04fe 67be 10a0 d23c
00000320: 42eb c3bc 88e9 5e3d 3fc4 f23c 2c6f 9bbd
00000330: d332 f33d 936b 323e 26d0 6e3d 8746 f83c
00000340: fb4e 863e 71c9 28be f727 32bd c044 16be
00000350: d758 813e 0daa d03d a3b8 67be e5e6 c83c
00000360: 333d 38be 6885 77bd 9959 a53d ccc8 1d3e
00000370: 939f e0bd 2154 56be 3379 613e 8846 d33c
00000380: 7b87 373e 88d5 993e 5c77 d03c c927 d63a
00000390: 41f4 083d bc4b 7c3d ab8e 2a3e 69a3 2c3e
000003a0: f4cb 2dbd 985e 183e a243 8cbd 525f 11be
000003b0: ee86 41bd c1e3 40be c465 313c 6a29 1b3c
000003c0: 574c 66be a4bd 313e 3703 a3bd b7d9 c83e
000003d0: 48aa 17be 3301 93bd 43b4 a6bd c3ac 67be
000003e0: 749b 063e adfd 073d 678a 10be cbca c13d
000003f0: c442 873d 8d5b 28bd 5fa4 81bd 2e4a 50be
0.08003669 0.034944043 0.12025627 -0.11958573 0.07577506 -0.08198552 0.10439945 0.07160856
-0.06744948 0.035497885 -0.104234345 -0.08500544 0.09793942 -0.08922531 0.023626078 0.18963368
-0.06360644 0.09365021 0.17641066 0.07301312 -0.11825325 -0.10408723 -0.03572004 0.20417713
0.01445632 -0.04888074 -0.20594458 -0.05511538 -0.039744426 0.038460463 -0.04716363 0.052880924
0.08135921 0.049889155 0.10996832 0.1642703 0.20119534 -0.06654916 -0.047517985 -0.1534406
0.024746897 -0.021419337 -0.13295376 -0.15724415 0.20330223 0.117697634 0.02539965 -0.31601635
-0.15433651 -0.08085847 0.15985185 -0.2332137 0.11810674 0.010711937 0.04303742 -0.15433379
0.045715354 -0.20745198 0.017106127 -0.027559401 0.015021118 -0.24116835 0.11086828 0.23703174
-0.218674 0.07517654 -0.027175859 -0.22693469 -0.18570873 0.19231841 0.161906 0.051208206
0.11975823 0.16965362 -0.11426943 -0.1795646 -0.098856546 -0.082600266 0.03950486 0.09624626
0.008259289 0.11122697 -0.099295616 0.34057173 -0.1133097 -0.2191031 -0.10059355 0.030527024
0.30349594 0.13655937 0.12852782 0.059841 0.013138233 0.15778552 -0.14254005 -0.1983886
-0.28388712 0.094891004 0.22467256 0.024087062 -0.15765251 0.20466019 0.18479137 0.13166058
-0.34355423 0.039015427 0.27434543 0.025286617 -0.25943533 -0.18264264 -0.04717083 0.34054944
-0.058288768 0.32324916 0.1658955 0.08352342 -0.12589714 -0.15385224 -0.21461588 0.29720935
0.227815 0.044143327 -0.33122644 -0.254641 -0.09740652 0.0011262819 -0.009923504 -0.22307666
-0.1346009 -0.2848921 -0.17860542 0.21853077 0.28951874 0.04085503 -0.18493173 -0.13725503
-0.1998115 0.019479627 0.007063444 0.12761773 0.16102046 0.2655492 -0.21763283 -0.2293894
0.15401493 -0.05070934 -0.2856665 -0.10677036 0.21037391 0.11604374 -0.119768694 0.023072153
-0.04579637 -0.08377517 0.36626536 0.25895032 -0.26744175 -0.22611979 0.19732605 0.14037357
0.10886578 0.0027572433 -0.10775892 -0.06299256 0.123744056 -0.16743475 0.021327812 0.02759189
0.19261166 -0.032213688 0.0064551746 -0.08114577 0.16301906 -0.04474601 -0.082689054 -0.13459001
0.15235415 0.15332118 0.17061421 -0.106862165 0.17272937 -0.027423142 0.028872417 -0.013628378
0.086442314 -0.1320096 -0.08404251 0.17268957 -0.06627488 -0.049413178 0.117181286 -0.01062179
-0.08425197 -0.35147074 -0.027975895 0.17940103 0.10761483 -0.14532296 -0.22655493 0.02571109
-0.02391589 0.05442193 0.029634593 -0.07589564 0.11874928 0.17423849 0.058303975 0.030307068
0.26232132 -0.16483094 -0.043495145 -0.14674664 0.25263092 0.101886846 -0.22629027 0.024524162
-0.17992096 -0.06042996 0.0807373 0.15408629 -0.10967936 -0.2093053 0.2201889 0.025790468
0.17922775 0.30045724 0.02544754 0.0016338761 0.033436064 0.061595663 0.16655986 0.16859211
-0.042430833 0.14879835 -0.068488374 -0.14196518 -0.04724782 -0.18836881 0.0108274855 0.009470323
-0.22490059 0.17357498 -0.079595976 0.39228603 -0.14811051 -0.07177963 -0.08139851 -0.22624497
0.13145238 0.03320091 -0.14115296 0.09462508 0.066045314 -0.041102935 -0.063301794 -0.20340797

decode.layers.0.self_attention_block.w_k.weight f4 [32, 32]
00000000: 6eea 03be 0378 74bd 00b8 23be 3ede 553e
00000010: 8dbe 043e 8cb9 2d3d 60dc 05be 6025 6dbe
00000020: 182b 073e 4db2 c0bd dbb2 ed3d 7d5f dc3d
00000030: bfd6 8bbd 0846 9fbd a2c1 d43d 26ab 463e
00000040: c2d0 99bc 1e09 653b 4b2e a83d dd4b 3dbe
00000050: 8bb2 b8bc 1488 0a3e 9133 0b3e 05f5 c53d
00000060: 62a6 e23c e683 29be 4986 f53c 9536 503e
00000070: 516c 4ebd ff1d 803d 8d52 dd3d 9b4e af3c
00000080: 50e2 8c3e cc27 cc3d 1254 3ebd 61ac 92be
00000090: e14c e6bd b286 4cbd 67dc a43d 6817 903d
000000a0: 8998 0fbe b7a8 793e 82e8 36bd ef08 8c3d
000000b0: d7b3 44bd 8e5c bc3d 93ba d33d e1ae 9cbd
000000c0: 19f3 9c3c cfcd 323b 2b9b 1dbe 1bca e73d
000000d0: e422 413e 7a3f 05bd 493c 0fbe c135 5e3d
000000e0: a6ec 95bc 5464 efbc a126 2dbd 1433 edbd
000000f0: 77ef d03d d09a f5bc 78b6 27bd 1182 ccbe
00000100: 70cd 55be a148 7fbd 8186 a0bd ed27 fd3d
00000110: 3d98 f9bd e528 f73c 51ae 1abe 473a 98be
00000120: b6e8 84bd e6c6 57be d32d d63c a543 c3bc
00000130: b527 953d 9b50 893d a7cf 7cbc 8757 44bd
00000140: b75a 5d3e ad25 a9bd 5ef3 603d aebd c73c
00000150: 0564 76be ca6a f3bc 48de d73d ea78 8ebd
00000160: 2712 e63d d2bf 73be 32a4 bf3d a967 f23d
00000170: 17fe ef3d ffcf bc3d e84c ebbd 5366 a33e
00000180: aace 6ebe 0920 3bbd 90a9 8ebe ab02 513e
00000190: ffaf 433e 7b3d 1a3d 5fc5 c8bd be89 3dbe
000001a0: e814 503d c2c5 2bbe 690a d93d 9e89 63bd
000001b0: 405a afbb 12d1 a83d b528 ce3d 8798 d43d
000001c0: 2960 a13d f11d 59be c9be 573e bf10 88bd
000001d0: ea05 a63d 6283 1fba 1b2f b8bd 0686 28bc
000001e0: ce0a d93a 15f2 94bd 9d72 11bd 4042 50bd
000001f0: 84e4 a0bd 8ff0 613d 05ee 0fbe 775f eb3e
00000200: 366e 623e d4e3 44be c1f5 8e3e 794d 81be
00000210: ec2d 943d 3901 5e3d 384f d93c c7c8 afbd
00000220: f517 743d 1277 b63c 9c3a aabd e06c a13c
00000230: 1cec 5dbe 33d1 2c3e 200f e83d 856d 183d
00000240: bca3 2f3e 0ecf 19be 50ae 543e f928 08bd
00000250: c404 353e 0143 23be 2561 0dbe d833 94bd
00000260: 8653 f93d bf82 5f3e 7f8a aebc 37bd 5ebe
00000270: 4f6c c03d 8325 09be c76c 9bbd 2905 26be
00000280: f8ab c4bd f9c3 35bd b76a 283e d851 4fbe
00000290: d3a3 5c3b 3317 0a3d 1f8b a4bd 859d babd
000002a0: d451 3fbe 5558 733d 87ee 443e cc72 cbbc
000002b0: 1884 f9bc f523 2fbd 6c9e 943c 9239 7a3e
000002c0: 2695 a93b 0dd5 173e bb92 833e 97f6 773d
000002d0: d49b 5e3d f6e0 97be 3a9a 96bd a9b0 093e
000002e0: a661 f8bc d35c 843d d3e4 e7bd 2dfc 093e
000002f0: 906a df3d fac2 073e 8858 bcbd a6ab 243e
00000300: 00c0 4d3d ce83 a0bd a0dd 7fbc df2a 13be
00000310: b47c 0ebd 5599 943b ead8 89bd 7d70 6ebe
00000320: 2e92 edbd 4325 af3d f5fb 7e3d 5f38 5fbd
00000330: 678b 51be 7682 333e 4934 dabd 1434 863e
00000340: 061e aebd 013a 10bd 242f 833e 0408 5dbe
00000350: ca8c 8d3d 375b 86be e103 5fbe ad5a 07be
00000360: 8dc1 e23d 0cc1 533d 3342 4bbd 2ab2 03be
00000370: a003 d7bd 20da 58be 8c6a f3bd 9a5d 053e
00000380: d121 3dbc b7ce 3ebd 9ac2 a3bd a9e4 c1bc
00000390: 32aa e7bd 7446 d23c d632 0cbe d0ae 6c3e
000003a0: 313e 5f3e 659a c23b 3aea 053e e0b5 263d
000003b0: f554 693e acb0 50be dc8f bfbd 4654 d6bd
000003c0: c1b0 7bbc 481e 1e3d c32b 3abe 832a 3a3e
000003d0: 60e0 16be 8d29 8e3e c163 aa3d bb11 22bb
000003e0: 33c1 5b3d 614d 24be 3f7e 8f3d e58b 1b3e
000003f0: c615 f5bd 45d8 d43d cf25 993d 77f1 383e
-0.12882397 -0.059684765 -0.15988159 0.2088556 0.12963314 0.04241328 -0.13072348 -0.23158789
0.13200033 -0.09409008 0.116063796 0.107604004 -0.06828069 -0.07777029 0.10388495 0.19401225
-0.018776301 0.0034948061 0.08211955 -0.18485971 -0.022546073 0.13528472 0.1359389 0.096658744
0.027667228 -0.16554222 0.029971259 0.20333321 -0.050396267 0.06255721 0.10806761 0.021399787
0.27516413 0.09968528 -0.046466894 -0.2864714 -0.11245132 -0.049933143 0.08049851 0.070357144
-0.14023031 0.24380766 -0.04465533 0.068376414 -0.04802307 0.09197341 0.103383206 -0.07650543
0.019158887 0.0027283316 -0.15391223 0.113178454 0.18860966 -0.03253124 -0.1398784 0.054250482
-0.01830132 -0.029222645 -0.042273168 -0.11582008 0.10201924 -0.029981047 -0.0409455 -0.39942983
-0.2087915 -0.062325124 -0.078381546 0.12361131 -0.1218724 0.030170867 -0.15105559 -0.29731962
-0.064896986 -0.21071967 0.026144898 -0.023835966 0.07282964 0.067048274 -0.015430368 -0.047935035
0.21616636 -0.08259139 0.054919593 0.024382439 -0.24061592 -0.029714007 0.10540444 -0.06956656
0.11233931 -0.23803642 0.0935749 0.11836178 0.11718386 0.092193596 -0.11489278 0.31914005
-0.23321024 -0.045684848 -0.2786374 0.20411174 0.19110106 0.03765629 -0.098032705 -0.18509576
0.050801188 -0.16774657 0.10597689 -0.055551164 -0.005351335 0.08243002 0.10066358 0.10380655
0.07879669 -0.21202828 0.21068873 -0.06643819 0.08106597 -0.0006084946 -0.0899336 -0.01028586
0.0016559006 -0.07272736 -0.035509694 -0.05084443 -0.07856086 0.055161055 -0.14055641 0.4597127
0.22112355 -0.19227535 0.2792187 -0.2525442 0.072353214 0.054200385 0.026527032 -0.08583217
0.05959316 0.022273574 -0.0831196 0.019705236 -0.216721 0.16876678 0.1133101 0.03721382
0.17152303 -0.15020391 0.2076962 -0.0332422 0.17677599 -0.15943529 -0.13806589 -0.07236451
0.12174134 0.2182722 -0.021306274 -0.21751867 0.09395658 -0.13393216 -0.07589107 -0.16212906
-0.09603113 -0.044376347 0.16446958 -0.20246065 0.0033666983 0.03371353 -0.08034348 -0.09112076
-0.18683559 0.059410412 0.19231616 -0.024835013 -0.030458495 -0.0427589 0.018141948 0.24436024
0.0051752506 0.14827366 0.25697884 0.0605379 0.054347828 -0.2966382 -0.07353635 0.13446297
-0.03032 0.06463017 -0.11322942 0.13475104 0.10908997 0.13257971 -0.091965735 0.16081104
0.050231934 -0.0783764 -0.015616804 -0.14371823 -0.034786895 0.00453488 -0.06730826 -0.23285098
-0.11600147 0.08552029 0.062252004 -0.05449712 -0.20463334 0.17530236 -0.10654504 0.26211607
-0.0850182 -0.035211567 0.25621903 -0.21585089 0.06911619 -0.26241466 -0.21778823 -0.13218184
0.11072073 0.051697776 -0.04962368 -0.12860933 -0.10498738 -0.21176958 -0.118855566 0.13023987
-0.011543707 -0.046583857 -0.07996102 -0.023668604 -0.11311759 0.02566836 -0.13691267 0.2311356
0.21801068 0.0059388154 0.13077632 0.040700793 0.22786315 -0.20379895 -0.09353611 -0.10465293
-0.015361966 0.038603097 -0.18180756 0.1818028 -0.1473403 0.27766076 0.08319808 -0.0024729806
0.053651046 -0.16045143 0.070065014 0.15190084 -0.119670436 0.10392813 0.074779145 0.18060862

decode.layers.0.self_attention_block.w_v.weight f4 [32, 32]
00000000: f7bd 873d a409 16be c5eb 01be 639a 943c
00000010: 5332 f9bd a9a7 19be 728f 063e b77b 3c3e
00000020: 8cbd 41be 7728 dcbd 0768 973d d465 623e
00000030: ec85 9abb 2983 d83d aa14 b63e eb59 f03d
00000040: 2cfb 51bd 8bda 8c3c 2fe8 54be 3e59 063e
00000050: 7e66 9d3c f0f3 913d 21bf 783e 87a4 07be
00000060: 4082 f13c 65e4 ed3d 05e0 5b3e c939 30bc
00000070: 07b9 d4bd 924a 673c 7db2 51bd 298a 8abd
00000080: ab6a 033e 6b9d b63c 8aff 08be 7593 cebc
00000090: 48a7 543e 2354 113d 601e 89bd 07d3 5b3e
000000a0: 2c5b 8f3d 69f3 173b 8e54 4cbe 816d 1abd
000000b0: 8016 9ebc 5be5 acbd e8c6 803e 0a68 ee3d
000000c0: 3296 433e a928 0c3e eb9a 383e c5da 813d
000000d0: 6805 cbbe d06a 483d d284 c63d 0071 32be
000000e0: cbe0 423e 64e0 03be c86a 4e3c f8cf 1d3e
000000f0: 64e3 8f3c 09a6 203d cc5a ca3d cab0 0abd
00000100: 79cb 3ebc 0ddc a13e 1737 c93d d620 51be
00000110: 0de7 673e 2d58 1bbc 60c2 413d 342b 3cbd
00000120: b9c0 c4bd 970e 3bbd a4d2 c83d b5fd 3abe
00000130: d79d fbbd 493c 32be 0426 bb3c cdd3 163e
00000140: 908f f4bd 9081 0d3e 418a bd3d ba44 b2bd
00000150: 1a02 e1bc 5182 0bbe 2329 05be 0f73 69bc
00000160: 95da 2fbd 8f2a 5ebc d6ef 60be 9ac1 663e
00000170: c9d0 13bd 0e1a 7a3e fde8 923b ed87 43bd
00000180: 1b64 74be 3516 25bc 4750 1b3e 321a 50bc
00000190: a10c 8f3e 7500 293e 53cc 2a3d d93e f2bc
000001a0: 173a d23d 3e6a 3a3e 8ee0 2b3e ef3b 783d
000001b0: 33e7 8c3e 62d3 3abc 4149 8dbe b1ca 03be
000001c0: 15b1 cabc 615c 153e 96a5 cdbd 985b 38bd
000001d0: 4d05 f8bd d3a4 8fbe 423a e0bd be7f 22be
000001e0: b47f 453e 8b12 1bbd 09f7 d53d c662 653c
000001f0: 3d93 20be efc9 8fbe a1cc 76be 0b8e 143e
00000200: bfac c53d 6742 583d d6a1 fa3d 2af2 d7bd
00000210: 93eb ae3d 64ea e03d 5fa5 8d3c 308a f5bc
00000220: 0cb1 f1bd 1ed9 1abd 7248 573b baa4 44bd
00000230: b5a8 86bd 39ad 063e 9f4f 743e e241 3c3d
00000240: adb7 37be d68b 74be 4d3d 0cbe 9962 b2be
00000250: 02eb a73d 0186 0a3e 64e6 543e 213d 8b3c
00000260: d22a 5dbe 00b2 d53a 59c9 0b3e 51e9 c73d
00000270: a0c4 183e 6e77 7cbe 06e9 4e3d 1e3b 723e
00000280: b347 8d3e 9953 813e f6ce 31be cf85 d0bd
00000290: abb2 afbd dce5 5f3e 7def 29bd aa73 603b
000002a0: 11d6 303e 2ec3 0abd 646d 2ebe af78 76bc
000002b0: 33f0 123e fa9c 023e 339f 23be 425c cbbc
000002c0: c1d7 0dbe a6e8 3e3d 6f2c cc3a 724f 27bd
000002d0: 7275 23bd c6ad 7bbd 8a97 2e3e d134 e8bd
000002e0: 8c4c 5fbd ce17 77be bd4f 8abe c643 083d
000002f0: 4980 6fbe 1401 17be 9a3d fbbc ecba 25be
00000300: 59f2 693e 9ebf 50bd e514 4fbd 2b2c 03be
00000310: dffd b7bd 264c 8ebe b46a 4fbd 770d 22be
00000320: 9625 8c3e 7216 c23d 7b6e 5dbe d19b 38be
00000330: d681 cfbd 0926 4a3c e5ac 84be c924 02be
00000340: a058 b43d 2724 e7bc a343 90bd 709a 4b3e
00000350: 2a95 e03d ce40 433c 9738 d6bd efba c43c
00000360: 28c3 00bb e64c 5ebe e9c4 fabd 4a00 593e
00000370: b79d b93e 4e18 2a3e 23dd b63d f3a1 a9be
00000380: 831b 24be 1bf9 66be fdc9 823e 0f4b 0ebe
00000390: be87 56be 6b9a 09be f936 663d ce83 3bbe
000003a0: f16e c6bd 5130 4abd 1ef6 933e 2edb 07bd
000003b0: 9ff0 d8bb 5782 d9bd 86c1 093e 4841 67be
000003c0: e269 a6bd 5517 cebc 703f 26bd 65d4 2c3e
000003d0: a2c4 5a3d 7c4e c53c 1f05 2ebe 52bf 463d
000003e0: b282 763e a8ed 923d efcd 853d f0fd 383e
000003f0: a9dd eb3b 7ee7 373e 6199 97bd 0b58 27be
0.0662803 -0.14652115 -0.12687595 0.018140024 -0.12167802 -0.15005364 0.13140658 0.18406568
-0.18919963 -0.107499056 0.073928885 0.22109157 -0.0047156718 0.10571892 0.3556264 0.117359005
-0.051264927 0.017194053 -0.20791696 0.1311998 0.019213911 0.071266055 0.2429166 -0.13246356
0.029481053 0.116158284 0.21472175 -0.010755965 -0.10386854 0.0141169 -0.05119561 -0.06764633
0.1283366 0.02229186 -0.1337873 -0.025216797 0.20766938 0.03548063 -0.06695247 0.2146722
0.069998115 0.0023185855 -0.1995413 -0.037702087 -0.019297838 -0.084421836 0.25151753 0.116409376
0.19100264 0.13687386 0.18027847 0.06340555 -0.39652562 0.04892999 0.09693302 -0.17425919
0.19031064 -0.12878567 0.012598701 0.15411365 0.017564483 0.039220843 0.098805994 -0.033860005
-0.011645191 0.31613198 0.09824961 -0.20422682 0.22646733 -0.009481472 0.04730451 -0.04593964
-0.096070714 -0.04566821 0.098058015 -0.18260844 -0.12285965 -0.1740581 0.022845276 0.14729233
-0.11941445 0.13818955 0.092548855 -0.08704515 -0.027466822 -0.1362393 -0.13003974 -0.0142486235
-0.042933065 -0.013559951 -0.2196649 0.2253479 -0.036087785 0.24424002 0.004483341 -0.04773705
-0.23866312 -0.010076095 0.15167342 -0.012701558 0.27939323 0.1650408 0.041698765 -0.029570984
0.10264986 0.1820459 0.1678488 0.060604032 0.2752014 -0.011402937 -0.2759495 -0.1287029
-0.024742642 0.14586021 -0.10041349 -0.045009226 -0.12110386 -0.28055438 -0.10948612 -0.15869042
0.19286996 -0.03785948 0.10447509 0.0140006 -0.15681167 -0.2808375 -0.24101497 0.1450731
0.09652089 0.0527977 0.12237899 -0.10544236 0.08541026 0.109822065 0.01729077 -0.02997312
-0.11801347 -0.037804715 0.0032849577 -0.048008658 -0.06575147 0.13152017 0.23858498 0.04596127
-0.1794116 -0.23881468 -0.1369526 -0.3484085 0.08199121 0.13527681 0.20791012 0.016996922
-0.21598366 0.0016303658 0.13651027 0.097612984 0.14918756 -0.24654934 0.050515197 0.23655364
0.27593765 0.25259092 -0.17364106 -0.10181772 -0.08579 0.21865028 -0.04148816 0.0034248629
0.1726916 -0.033877544 -0.17033917 -0.015043422 0.14349441 0.12755194 -0.15978698 -0.024824265
-0.13851835 0.04660859 0.0015577207 -0.04084725 -0.039906926 -0.06144502 0.17049995 -0.11338199
-0.05451636 -0.24130175 -0.2701396 0.03326776 -0.2338878 -0.14746505 -0.030669022 -0.16184586
0.22846355 -0.05096399 -0.050557036 -0.12809817 -0.08983969 -0.27792472 -0.05063887 -0.15825449
0.27372426 0.09476937 -0.21624176 -0.18028189 -0.10132186 0.01233817 -0.25913158 -0.12709345
0.088059664 -0.028215481 -0.07044151 0.19883132 0.10965951 0.011917306 -0.104600124 0.024014918
-0.0019647572 -0.21709022 -0.12244589 0.21191517 0.3625314 0.16610834 0.08928897 -0.3313137
-0.1602612 -0.22555964 0.2554473 -0.1389582 -0.20950219 -0.13437812 0.05620477 -0.18311998
-0.09689129 -0.049362484 0.2889871 -0.03316801 -0.006620481 -0.106205635 0.1345273 -0.22583497
-0.08125664 -0.02515761 -0.040587842 0.16877897 0.05341018 0.024085276 -0.16994141 0.0485223
0.24073294 0.071742356 0.06533419 0.1806562 0.007198055 0.17959401 -0.074023016 -0.1634218

decode.layers.0.self_attention_block.w_o.weight f4 [32, 32]
00000000: daa2 e23d cde5 103e b713 acbd 0a9f 2f3e
00000010: b09e 96bd 6daa 7b3c 77eb 1a3e ea0b 0c3e
00000020: d474 10bd 7c3f 193e 12fd ae3d db18 c13c
00000030: 7774 cb3d 6897 f2bd 69e2 8fbc 9e2f 193d
00000040: 02dc 9b3d a079 80bd 933a 323c 77c3 53be
00000050: c0b9 15be ec2f ba3d f402 34bd 8ec9 843d
00000060: 2d1f 4bbd 466d 0f3c 10cc 523e baff a3bd
00000070: c827 34bd 41ff 08be 673c 9b3d 1ba4 fbbd
00000080: ce01 4cb9 fad2 2fbe c8a7 a4bc 43a1 6fbe
00000090: 7d27 8d3d 474e d8bd 9397 e83d d2ac 503d
000000a0: df0e 51be 9ff6 b8bc cb05 b63d 4bd5 243d
000000b0: ba27 02be 9262 c9bd f60c 1f3e 2026 443d
000000c0: 01b5 15be 38b6 f5bc d414 df3d 6176 623e
000000d0: edea 013e 1f05 983d 8525 35be 563c cfbc
000000e0: e7b8 b73d 0743 3dbe 59fc df3d 9b0a 74bd
000000f0: 5e8d 6b3e c086 5f3e d45e 7fbe ff71 243e
00000100: b339 1b3e 3fb4 bbbd 84bf 68be 2704 51be
00000110: 706b 373d 5c2e a7bd 8c31 803c 35bd 2ebc
00000120: ba2a 8a3e c0fc 133d 4cd0 63be 3653 1dbd
00000130: 9ca3 fe3b 60f7 b3bd df67 db3d 00e5 973e
00000140: 1bf7 4c3d 0fe7 a83d 6975 1cbd b68c 303e
00000150: e9c7 18be a666 973d d3cc fb3d 797a 1a3e
00000160: 7744 99bd 2957 343e 52f1 463e 4261 46bd
00000170: 1468 42be 1705 573d 0cef 5e3e c079 34be
00000180: 6a2b 61be c480 ee3d b81a f0bd b0df c83d
00000190: 57c0 05be 95db 8ebd eaa1 a43d 1de6 53bd
000001a0: fec5 5a3d 0314 23be 2184 7a39 98f2 ecbd
000001b0: 9631 b9bd efa5 303d b92e 853d 2fd2 9abd
000001c0: 52f8 88bb db33 683e 52d3 4ebe 98a9 b73c
000001d0: d1ec 0d3d 6657 94bc d875 69bd fb9c 843e
000001e0: 6172 54bd 3346 d53d 574c 00be b838 5e3c
000001f0: 260a 00be dc3a 433e e0fe 5c3e 7f0a c0bd
00000200: ae5a bfbe e99e 85bb 90ea dd3d ee57 ab3e
00000210: 2181 b5bd 98bc 99bd d7ba 373d b01a fd3d
00000220: 2318 9c3e 5ca0 72be a09b 983d 238b 5e3d
00000230: 72ff ccbd ae60 3e3d 636c 40be e59c 353e
00000240: 9214 803c 6aee 64bb 52c3 283d 2f71 30be
00000250: a80b b13d 26ec c03d 7129 c43d aa37 90bc
00000260: 7644 c0bd 17f6 a6bd 6d7a 9ebc f88a 8c3d
00000270: ca1e 4ebe b6f3 04be e683 be3c 0ccd 3dbe
00000280: adfc 013e f137 443d 059b ccbd e3af 01be
00000290: d99c ed3d 2373 04be 315b 38be d8fd 4fbc
000002a0: eeea 8b3e 950c 263e 5ba9 04be 15e7 7f3e
000002b0: 5abe 143e 3808 163e d62a 0c3e 995c 38be
000002c0: d881 b23d 794f 8dbd 04cf 03be f54d 9c3d
000002d0: ad70 e03d 9622 6dbe da89 ce3d 2c06 e8bd
000002e0: f663 bebc 73e4 4e3e f528 04bb 132b 333e
000002f0: 7d7f 423c 6582 4fbe 95e0 38be 1fd5 0bbe
00000300: a71c 64bd 2563 29be fbb6 3dbd ee47 64bd
00000310: 3106 963e 8c73 03be 7831 e0bd f571 8fbc
00000320: 6196 e53d 59ed 153e 6395 26be 8744 18bd
00000330: ce78 be3d e53b 93bc fa44 373e 50c3 1a3e
00000340: 9634 213e d0a2 d13c 50ff 54be 10bc 61bd
00000350: 39b3 55bd 1835 193d f3f0 35be d1ab 8fbd
00000360: 7ce1 d93d fdd4 05be 8bb6 9b39 4d5d e13c
00000370: 45ae 18bd c422 103d 62df 6d3d 486b b53d
00000380: 05e2 3cbd 4efd 9fbc 1c2f c6bd f014 9f3d
00000390: 2142 68be 7ecb debd f073 b83d 41c9 0c3e
000003a0: 2921 5fbe c279 643e 7c06 4dbe f533 2e3d
000003b0: 0a35 263e 1c9e 26be 9558 aebc 65cc 83be
000003c0: 2865 093e 78bc 42be b1b1 393e 40a3 30be
000003d0: 8c9d 3f3e 393e e93b 931f 21bd 08d8 4c3e
000003e0: f7cb a1bb 6058 d4bd 79fa ea3d 69e7 eabd
000003f0: 6e63 2bbd 1d90 6bbd 30c7 babd 3603 5fbd
0.11066218 0.14150162 -0.08402198 0.17150512 -0.07354486 0.015360457 0.15128885 0.1367642
-0.035267666 0.14965624 0.08544363 0.023571422 0.09934323 -0.11845285 -0.017564015 0.037398927
0.076103225 -0.06273198 0.010878223 -0.20680033 -0.14621639 0.090911716 -0.04394813 0.06483756
-0.04959028 0.00875408 0.20585656 -0.0800776 -0.04398325 -0.13378622 0.0757988 -0.1228716
-0.00019455628 -0.17170325 -0.020099536 -0.2340136 0.068922974 -0.10561805 0.113570355 0.050946064
-0.20415829 -0.022578536 0.08887824 0.040242475 -0.12710467 -0.09833254 0.15532288 0.04788792
-0.14619829 -0.029994115 0.108926445 0.2211547 0.12687273 0.07422852 -0.17690094 -0.025297325
0.08970814 -0.184826 0.10936803 -0.059580427 0.23003146 0.21828747 -0.24938518 0.16059111
0.1515873 -0.091652386 -0.22729307 -0.2041174 0.044780195 -0.08163139 0.015648626 -0.010665228
0.26985723 0.036129713 -0.22247428 -0.038409434 0.0077709686 -0.087874174 0.10713171 0.296669
0.050040346 0.08247196 -0.03819791 0.17241177 -0.1492001 0.073926255 0.122949265 0.15085782
-0.07483762 0.17611374 0.19427994 -0.048432596 -0.18985015 0.05249509 0.21770877 -0.17624569
-0.21989217 0.11645654 -0.11723846 0.0980829 -0.13061653 -0.06975476 0.08038695 -0.051733125
0.053411476 -0.15925603 0.0002389108 -0.115697086 -0.09042661 0.043126997 0.06503052 -0.075596206
-0.0041799927 0.22676031 -0.201978 0.022419736 0.034649674 -0.018108081 -0.05699715 0.25901017
-0.051866893 0.1041378 -0.12529121 0.0135633275 -0.12503871 0.19065422 0.21581602 -0.09377002
-0.3737387 -0.0040777815 0.10835755 0.33465523 -0.0886252 -0.075066745 0.04485592 0.12358606
0.30487165 -0.23693985 0.07451558 0.05433191 -0.1000966 0.04647892 -0.18791346 0.17735632
0.015634809 -0.0034932145 0.041201897 -0.17230676 0.086448014 0.09420042 0.09578217 -0.017604668
-0.09388058 -0.08152407 -0.019345487 0.06862444 -0.20128933 -0.12983593 0.023256253 -0.1853525
0.12694044 0.047904912 -0.09990505 -0.12664752 0.11602182 -0.12934546 -0.18003537 -0.012694798
0.27327675 0.16215737 -0.12955229 0.24990495 0.14525738 0.14651573 0.13688216 -0.18004073
0.08716172 -0.06899924 -0.12871939 0.076320566 0.10958991 -0.23157725 0.10084887 -0.11329302
-0.023241024 0.20204334 -0.0020166014 0.174969 0.011871216 -0.20264585 -0.18054421 -0.13655518
-0.055691388 -0.16541727 -0.046317082 -0.05573266 0.293016 -0.12837046 -0.109469354 -0.017510394
0.11210323 0.14641322 -0.16267924 -0.037174728 0.093003854 -0.017972896 0.17897406 0.15113568
0.15742716 0.02559033 -0.20800519 -0.05511099 -0.052172873 0.03740415 -0.17767696 -0.07015193
0.10638711 -0.1306953 0.0002969991 0.02751031 -0.03727557 0.035189405 0.058074363 0.08858353
-0.046113987 -0.019529965 -0.09676954 0.077676654 -0.22681476 -0.10878657 0.09006488 0.13748647
-0.21789993 0.22312072 -0.20022005 0.04253002 0.1623117 -0.16271251 -0.021282474 -0.25741878
0.13417494 -0.19017208 0.1813419 -0.17249775 0.18712443 0.007118013 -0.039336752 0.20004284
-0.0049376446 -0.10368419 0.11473555 -0.11469919 -0.04184287 -0.057510484 -0.09120023 -0.05444642

decode.layers.0.feed_forward_block.linear1.weight f4 [128, 32]
00000000: f183 eb3d 4d69 223e fa5c 253e 47b1 18be
00000010: ba8f 613d d8cf fcbd bf6f d4bc 717e 3cbe
00000020: 14b4 7ebe d291 06be 8dd8 843d ff1b 36bd
00000030: 39c8 cebd 0423 0a3e 683e 01bc a85f 03be
00000040: c3b1 adbd e33f 303d 1c6e 553e afba 02be
00000050: deb2 a2bd f227 fc3d 531e 21be 93f5 82bd
00000060: ba2e 7f3e 0988 adbd c663 21be 94d2 bf3c
00000070: 6f49 82bd 9bc5 f23d 9151 28be 5c64 a03d
00000080: bc53 25bd d62d acbd b58f 5a3e aadd 603e
00000090: 2b0f 9d3d 65d5 fabd 7b76 cebd 6850 17be
000000a0: 2352 2ebd 3b90 1a3d 8473 cebd 985b 89bc
000000b0: ec80 a33d a269 d33d a050 0a3e 5adc 2ebe
000000c0: 6f5d 643d c53d b73d 2c89 033e b8d6 89be
000000d0: 4d8b 1dbe e6b6 db3d 7a14 73be fb8b dc3c
000000e0: 74a0 f83d 0d40 853e cc14 773d 99a4 41bd
000000f0: 4527 463e 30a2 ef3d 9d96 783c 7c52 4abd
00000100: d3ea e83c a063 3f3d bab9 213e a3a5 9c3d
00000110: a313 213e 5d4d 0a3e 6e0d 1b3e f8c6 3b3d
00000120: 4357 c03c b5d8 abbc bb53 0d3e 24e4 333e
00000130: 6c58 c9bc fec5 003e 64b7 303a b4a3 d53c
00000140: 19bb e93c f1c9 143e b8bc 973d 6548 16be
00000150: 4291 d5bb db21 753c 8d88 153d 145c cf3d
00000160: d02c a33c a7e2 893b 39a1 d7bd b979 41be
00000170: da93 193e e877 3ebe d686 02bd 069e a0bd
00000180: a09a d83c ec68 65bd 73ef 8bbd 56d8 1d3e
00000190: f08f b83d 5678 3abe 423d 4bbe c8c7 0dbd
000001a0: 2ae9 243c 51de 1a3e 5545 08be 8dfa 4e3d
000001b0: f14f 8a3c c51d fabd 71a1 763d 42df a8bc
000001c0: b1a5 da3d b2b9 dfbd 1c39 cc3d 6b20 edbc
000001d0: 62e1 a2bd 97e6 6f3d 4363 bcbd 9638 533e
000001e0: e4d7 46be 9624 903d 1396 6cbd 80b5 15bd
000001f0: 42ef 2e3d 03e1 c6bd bc0f e8bc 7860 ce3d
00000200: 0b68 d9bb a79b 343e 8584 5dbe ff0f 24be
00000210: abe8 863d 4aa1 a53d 64ff a13c 42d1 22be
00000220: 4cfb 4d3e d0c3 043e 2893 6c3e 1f0d 133d
00000230: a3d8 efbd a8ba 02bd a780 2f3e b267 ddbc
00000240: 7d5c b3bd 1054 c0bd 8768 11be 471b fc3d
00000250: d6df b43c 1b80 a2bd d5c4 82bd 843e 573e
00000260: 0365 173d 46f6 b93d 6f47 d63d 78ad 14be
00000270: aae5 0cbe 21c4 d7bd f83c 903a 89e0 7ebd
00000280: c353 63be 9726 333e 7c2c 04be 7449 2a3e
00000290: ffb4 033d 5a42 27bd a9b7 db3c 3fa4 93bc
000002a0: 5568 9b3d 4e16 9f3d 31fb af3d fd8f adbd
000002b0: 2e9b 503e 89cf 5e3d 8c4d 193e f591 aa3d
000002c0: 0a11 a03c d2f2 163e 9385 fe3d 6ba9 6cbe
000002d0: d38e f8bc 8315 bbbc a588 0ebe c2f0 0ebb
000002e0: 714a 093e d604 e0bc 843a 71bd 303f 11be
000002f0: 67a2 843d f5f0 02bd a134 3dbe e431 023e
00000300: 9e1e 323e 2f4e 00bd 4049 8e3d 2955 2dbb
00000310: 1091 efbd bcbf 1a3e e4cb 0dbe 981a 06bb
00000320: 791d 0bbe cef7 cfbc 5fd6 b8bd d05a c8bd
00000330: eba0 adbd 58a4 55bd 6b00 fa3c b382 cfbb
00000340: d599 8c3d eded 573d 42b2 a33d 1ea4 d0bc
00000350: b3fb 6abd 85fd 4bbe c00f c5bc 975f 393e
00000360: 92c1 cdbc 7fcb 24bd 3389 8bbd 3118 d43c
00000370: 262c 55be 09ed 9cbd ad30 10bd 98f5 e33d
00000380: 6276 94bd b941 023e c5d4 9fbd fc8b c63d
00000390: 956a 21be 05a6 b03d 3eec a73d 3bea d13d
000003a0: a2b8 8fbd d89a f23c 8a01 b53d dbe6 37bc
000003b0: 7efd 3c3d d8e3 05be 9559 0bbe d9d4 8dbd
000003c0: 0ee2 9dbd 40aa e7bd 0fed 17be d964 ecbc
000003d0: e3e3 453d c098 ae3d bfdf afbd 68c9 92bb
000003e0: d4ed 0ebe 183f 16be 5cd8 1dbe 9b0b 18be
000003f0: 0e08 c3bd 02d9 02be 6bee 373e 1810 8ebc
0.11499775 0.15860482 0.16148749 -0.14911376 0.05506871 -0.123443305 -0.025932191 -0.18407609
-0.24873382 -0.13141564 0.06486616 -0.044460293 -0.10096783 0.1348992 -0.007888414 -0.12829459
-0.08481171 0.043029677 0.20842785 -0.12766527 -0.079442725 0.123123065 -0.15734224 -0.06394496
0.24920169 -0.08473212 -0.15760717 0.023415841 -0.063616626 0.118540965 -0.16437365 0.07831642
-0.04036306 -0.0840718 0.21343882 0.21959558 0.07668909 -0.12247733 -0.10081192 -0.14776766
-0.0425588 0.037735205 -0.100806266 -0.016767308 0.07983574 0.10322882 0.13507318 -0.17076245
0.055753168 0.089473285 0.12845296 -0.2692163 -0.1538517 0.107282445 -0.2373828 0.026922217
0.12139979 0.2602543 0.060322568 -0.047276113 0.19350918 0.11700857 0.015172628 -0.04939507
0.028432285 0.04672587 0.15793505 0.0764878 0.15730147 0.13506074 0.15141842 0.04584405
0.02347911 -0.020977357 0.13801472 0.17567497 -0.024578296 0.12575528 0.00067411945 0.026079036
0.028531598 0.1453016 0.07409042 -0.14676054 -0.00651756 0.014961685 0.036507178 0.101249844
0.01991883 0.0042079273 -0.10528798 -0.1889409 0.14997807 -0.18600428 -0.03186687 -0.078426406
0.026440918 -0.056008264 -0.06832781 0.15414557 0.09011829 -0.18209967 -0.19847587 -0.034614354
0.010065356 0.1512387 -0.13307698 0.050531913 0.016883822 -0.12212709 0.060212556 -0.02061427
0.106761344 -0.109240904 0.0997183 -0.028946122 -0.079531446 0.058569517 -0.0919862 0.20627055
-0.19418293 0.07038228 -0.05776031 -0.036550045 0.042708643 -0.09710886 -0.028327815 0.10076994
-0.0066347173 0.17637502 -0.21632583 -0.16021727 0.06587347 0.08087404 0.0197751 -0.15900138
0.20115393 0.12965322 0.2310301 0.035901185 -0.11711242 -0.03191629 0.1713892 -0.027026985
-0.08757875 -0.09391034 -0.1420003 0.1230989 0.02207939 -0.079345904 -0.06385199 0.21019942
0.036961567 0.09080176 0.104628436 -0.14519298 -0.13759485 -0.105354555 0.0011004498 -0.062225852
-0.22199921 0.1749519 -0.12907594 0.16629583 0.032155033 -0.040834762 0.026820974 -0.018022655
0.07588259 0.07767926 0.08592833 -0.08474729 0.20371696 0.05439714 0.14970988 0.0832862
0.019539375 0.14741066 0.12427821 -0.23111503 -0.030341541 -0.022837406 -0.13919313 -0.0021810983
0.13407303 -0.027346056 -0.058893695 -0.1418426 0.06476288 -0.031968076 -0.18477108 0.12714344
0.17394492 -0.03132456 0.06947565 -0.0026448464 -0.1169759 0.15112203 -0.1384731 -0.0020462628
-0.13585462 -0.025386717 -0.09025263 -0.09782946 -0.08477958 -0.052158684 0.030517777 -0.0063327192
0.06865279 0.052717138 0.07992984 -0.025468882 -0.057368945 -0.19920929 -0.024055362 0.18102871
-0.025116716 -0.04023313 -0.06813278 0.025890442 -0.20817623 -0.07662398 -0.03520267 0.11130828
-0.07249142 0.12720384 -0.078042544 0.09694669 -0.15763314 0.08625416 0.081993565 0.10249754
-0.07017638 0.02961485 0.08838184 -0.011224474 0.046140186 -0.13075197 -0.13608392 -0.06925363
-0.07709132 -0.113117695 -0.14836524 -0.028856682 0.048313033 0.085252285 -0.08587598 -0.004479576
-0.13957912 -0.14672506 -0.15414566 -0.14848177 -0.09523021 -0.12778094 0.17962043 -0.017341658

decode.layers.0.feed_forward_block.linear1.bias f4 [128]
00000000: 5632 f5bd 7566 64bc 6499 43be f51d 533e
00000010: 0411 0f3c 19aa 913d 05a9 f3bd 34fc c0bd
00000020: 0280 41be 446f c7bd 0603 e0bd 42a3 683c
00000030: 94fd 20be 7dae 45be 29c0 a1bb 9d2f 753d
00000040: 8226 22be d441 c93c c587 97bd f46a 17bd
00000050: 4b06 eabd 5982 51be e6c7 58be 54ba 13be
00000060: fbaa 11bd 225d 16be b6ac 90bc bb46 013d
00000070: 1873 2fbe 8fc5 64bd d63b 393e b840 8e3d
00000080: 37a3 03be abfe 9bbd 223b 3dbd 3b7d f03d
00000090: 2798 c23d 3d01 e1bd 0e6d 023e 2475 c4bd
000000a0: 10b6 40be 8100 2cbe 6b87 07bd 38a7 a8ba
000000b0: b318 3fbd 2d27 3abe 4cfd a03c 7186 4abe
000000c0: 99cd bfbd 5bbd d33d edfa 433b 1c67 cfbc
000000d0: 62ae 33be 9f5e 26be 544e 36be 3048 0fbd
000000e0: 4565 14be d483 c03d 9688 26bc 1418 813d
000000f0: 941a 3abd f059 323e 02bb 8f3d 73f9 a33d
00000100: 66a6 da3d c41f f5bd 579e ca3d 77aa 96bd
00000110: d65e 963c 1e72 04bd 82c1 68be b0f4 05bd
00000120: 2d8b a53d 23d3 0abe 600c b93d c276 b2bd
00000130: b8ea 2fbe 2a2e 6bbe 16c8 b63d 8e52 7bbe
00000140: b4c7 d9bd 8da0 1bbd 81b0 9cbd fb64 21be
00000150: b53b 94bc d073 663d bcb0 01be 3cac 3fbe
00000160: b8a6 9b3b 6890 40bd baee ee3d cb87 48be
00000170: 93d1 49be 4fb9 3fbe 2f35 ddbd c247 993d
00000180: e7ee 91bd fe26 2f3d a7fa 893c 6ea9 743d
00000190: c1ce 0b3d 6ca8 473d 86e2 29be 96ad 963d
000001a0: b885 26bc 80ea 50bc 5e35 abbd 139b a03a
000001b0: 3f0d 413d 9ecc e6bd bb8d f9bc df9a 6ebe
000001c0: 8eff d4bd 410e 8fbc f563 f4bc 6ad2 973d
000001d0: 650b edbc e5f9 60bd 95c0 6dbd cb79 cc3d
000001e0: 00a1 04be 30b0 38be e34d 72be b7fc 083e
000001f0: e22f c23d 98a4 a5bd 67b9 cf3d 2de7 653d
-0.119724914 -0.013940443 -0.19101483 0.20616896 0.008732084 0.07112522 -0.11897472 -0.09423104
-0.18896487 -0.09738019 -0.10938077 0.01419908 -0.15721732 -0.19304843 -0.0049362374 0.05985986
-0.15835002 0.024567522 -0.07398943 -0.036967233 -0.114269815 -0.2045988 -0.21170005 -0.14426547
-0.03556345 -0.14683965 -0.01766048 0.031561594 -0.17133749 -0.05585247 0.18089232 0.06945938
-0.1285523 -0.076169334 -0.04619897 0.11742636 0.09501677 -0.10986564 0.12736914 -0.09592655
-0.18819451 -0.16797067 -0.03308813 -0.0012867218 -0.046654414 -0.18179007 0.019652031 -0.19777848
-0.093653865 0.10338851 0.0029904202 -0.025317721 -0.1754699 -0.16247033 -0.17803317 -0.034980953
-0.14491756 0.09400144 -0.010164401 0.06303421 -0.045435503 0.17417121 0.07018091 0.08006563
0.10676269 -0.119689494 0.09893482 -0.07356732 0.018355768 -0.032335393 -0.22730067 -0.032704055
0.08083186 -0.13557105 0.090355635 -0.087140575 -0.17179382 -0.22966829 0.08924882 -0.24543211
-0.106337935 -0.03799491 -0.07650853 -0.15761177 -0.018094877 0.05626279 -0.12665075 -0.18718046
0.004750099 -0.047012717 0.11666627 -0.19583051 -0.19708852 -0.18723033 -0.108011596 0.0748439
-0.07125645 0.042761795 0.016843153 0.059731893 0.034132723 0.048744604 -0.16590318 0.07357328
-0.010163717 -0.012751222 -0.08359788 0.0012253247 0.047131773 -0.112694964 -0.03046309 -0.23301266
-0.10400306 -0.017462851 -0.02983282 0.0741318 -0.028936097 -0.054925818 -0.05804499 0.09984168
-0.12952042 -0.1803596 -0.23662524 0.13377653 0.09481789 -0.080880344 0.101427846 0.05612867

decode.layers.0.feed_forward_block.linear2.weight f4 [32, 128]
00000000: a493 e23d 7412 2b3c c280 39bd 4eed b1bd
00000010: 22ab b6bd 2328 88ba 2aa3 c03c 34fc ac3b
00000020: cb28 8ebd 2bdd 0bbe 73ff f13d f840 01bd
00000030: 2544 b0bd 81ec 89bc 3904 093d 64de b63d
00000040: 30b8 ba3d fdd1 d03d ab3b 563d 53bc a2bc
00000050: cb8f 98bc e6a9 ed3c 1d35 423d cbaa 8dbc
00000060: 8de3 e5bc 9d5b 433d c25d 103d 69d9 98bd
00000070: 730e 88bc dcc4 42bd b8ad 57bd 2ea3 53bd
00000080: b7de 9cbd ea3b 673c 3c3d c23d 451b 033e
00000090: 548a bcbd 7eaf dbba 1c13 af3d f517 a2bd
000000a0: 5c79 afbd 3a04 2bbb 0749 bdbd d9ec 2a3d
000000b0: 83a4 d43d 05ed 23bd 7495 1f3e 29af 173e
000000c0: 05c2 0fbd 0f63 c9bd fb8c 20be cb2a 583c
000000d0: 48ac 043d c10c 18bc 5604 773d 3d8e ee3d
000000e0: 1026 93bd 41ee 7abc 7743 2abd 8cbf 023d
000000f0: 5098 f83c 56e7 77bc 8392 babd e7d1 85bd
00000100: 4227 0c3e f14c b93d 5797 9e3d 0d06 2f3d
00000110: e054 04bc c00a 863c f44c 793d cb72 68bd
00000120: abbf 553c 3fe2 45bd 0421 c73c 9c1b b13d
00000130: 38c1 4abd 99c2 493d cca6 55bd 8efb 7abd
00000140: 35cf 603c f07c 02be 2398 123d c73a aabc
00000150: 8828 15bc eac9 ddbc 9921 573d a421 d9bd
00000160: 2dc6 ecbc 14a2 cfbc 046f 8f3c 9a4c 5c3c
00000170: a584 89bd 9d58 9ebd f79d 1dbe d60e 8d3c
00000180: b093 e4bd c12f 60bd 9b76 1c3d 76e2 af3b
00000190: f048 a4bd 7c67 d3bd 5650 39bc bf32 4abc
000001a0: 290c 393d 1add 803c 4dc3 29be 22db 763d
000001b0: b1cc 843d 50d5 01bd afd2 d6bc 67f2 3cbe
000001c0: 01b0 233d cc5b 38bc 9737 5ebe ea77 34bc
000001d0: f95e e1bd b263 0d3d 5153 9d3d e81f 9f3b
000001e0: d274 88bd becc 103e 41c8 9f3b 3883 05bd
000001f0: 16be 123e 9030 783d baf6 febd 306e ecbc
00000200: 7120 433d 941f 853b f206 74bd 663f 803c
00000210: 4240 253e 47a3 4e3d 9b39 4ebd fa0a 66bd
00000220: bd8c 2dbd b62b 62bd 34bb 59bd f310 78bd
00000230: 5cc8 aabd c751 863d 3e40 393c 4def 11bd
00000240: edd4 5bbc eb97 58bd c070 78bd 7ec6 e43c
00000250: a955 37bc 3e54 8f3d f1fb a5bd 5a7c 173d
00000260: 8df5 8fbd d851 32bd 1176 923d c845 65bd
00000270: adaf 053e baf2 3cbd 5c04 24bb 5bea 0dbb
00000280: ebec d63c 42c5 3abd 2f92 a7bd ceb4 823d
00000290: 3b50 79bd f3b0 68bd 3f9b 47bc ea9c 23be
000002a0: 9768 663d 8662 5c3c 4870 4cbd c4b1 29bd
000002b0: ec37 d7bd baea 163d 6526 943d 7628 b0bd
000002c0: e4d8 87be ad17 3f3b bc4a 93bd a3b4 1e3d
000002d0: 9717 2abc 683c a03c 5b36 bd3c 5e8a 173c
000002e0: 3567 7ebc 6194 c8bd 711b c0bc 190c a0bd
000002f0: 0920 7bbc 905b c3bd 7a11 8d3d ccd0 97bc
00000300: 2cba ce3d d7e8 5f3e fde4 8f3d aeb0 933d
00000310: 87d1 b9bd 4842 7dbc f815 8d3c 627e 36bd
00000320: 7feb 18be 62fd 473d 80f9 af3c 9097 613c
00000330: d087 a9bc f878 e53b c4de 8bbc 8dd7 79bd
00000340: e8ce d33d a99e 5a3d eff1 39bd 6765 f6bd
00000350: 25c8 6ebd 40e4 843d a7c9 2abc c81c b63d
00000360: 007b 4e3b d6d3 4cbd 445a 8dbd 81ee 613c
00000370: 6c38 143d f6cd 6b3d 4b01 52bb 2e3b 08be
00000380: 3fa7 b3bd c71c ac3d da64 90bd 698c 733d
00000390: fe61 2a3d f8e3 7a3d 08c0 32bc bdfd e5bd
000003a0: 1d62 553d d5c9 a3bd 8dd0 1abe 8cad 183d
000003b0: 026a de3c febb eebd 0410 28bb f1c6 91bd
000003c0: a2d8 a2bd 28f6 0abc 4f2d 09bd 86a4 a4bc
000003d0: abfb c33d d540 81bd 5914 1cbd e03e 313d
000003e0: 36f1 8bbc 4f08 1f3e c61b 1d3e a684 b83b
000003f0: 38bc 1bbe e66d 17be 2261 8a3d b361 893d
0.110633165 0.010441411 -0.04528881 -0.086878404 -0.0891936 -0.0010387938 0.023515303 0.0052790884
-0.069413744 -0.13658588 0.11816301 -0.0315561 -0.086067475 -0.016836407 0.033451293 0.089291364
0.09117162 0.10196302 0.052302998 -0.01986519 -0.018623253 0.029011678 0.047413934 -0.017293354
-0.028062606 0.04769479 0.035245664 -0.07463343 -0.016608452 -0.04755102 -0.052655905 -0.051669292
-0.07659667 0.014113406 0.09484336 0.12803371 -0.092060715 -0.0016760675 0.08548567 -0.07914726
-0.08568069 -0.0026095049 -0.092424445 0.04172978 0.103829406 -0.04002096 0.15584356 0.14812912
-0.03509714 -0.09833347 -0.1567878 0.013193796 0.032390863 -0.0092803845 0.06030687 0.116482235
-0.07184994 -0.015315593 -0.041568246 0.031920955 0.030346066 -0.015130838 -0.09109976 -0.06534176
0.1368685 0.090478785 0.077437095 0.04273038 -0.008076876 0.016362548 0.060864404 -0.0567501
0.0130461855 -0.04831147 0.024307735 0.08647844 -0.049500674 0.04925785 -0.052161023 -0.061275057
0.013721277 -0.12742972 0.03578962 -0.02077998 -0.009103902 -0.02707382 0.052522276 -0.106021196
-0.028903091 -0.02534584 0.017508991 0.013445998 -0.06714753 -0.077317454 -0.1539229 0.017218988
-0.11160982 -0.05473304 0.03819905 0.0053675724 -0.08021724 -0.103224725 -0.0113106575 -0.0123412
0.045177612 0.01573043 -0.16578408 0.060267575 0.06484354 -0.03169757 -0.026223509 -0.18451844
0.039962772 -0.011252355 -0.21700893 -0.011014918 -0.11004443 0.034518905 0.07681907 0.0048560984
-0.06662907 0.14140603 0.004876167 -0.032595843 0.14330325 0.060593188 -0.12449403 -0.028861135
0.04763836 0.0040626023 -0.059576936 0.01565523 0.16137794 0.050448682 -0.050347906 -0.05616281
-0.042370547 -0.055217467 -0.053157046 -0.06056304 -0.08338997 0.065585665 0.01130682 -0.035628606
-0.013417465 -0.052879255 -0.0606544 0.02792668 -0.011189857 0.0699849 -0.08104695 0.036983825
-0.07029257 -0.043535084 0.07151426 -0.05597475 0.13055296 -0.04612992 -0.0025027012 -0.002165458
0.026236018 -0.045598276 -0.08182179 0.06382142 -0.06086753 -0.056809377 -0.01218301 -0.15977827
0.05625209 0.013451224 -0.049911767 -0.041429296 -0.10508713 0.036844946 0.07233886 -0.08601467
-0.26532662 0.00291584 -0.07191989 0.038746487 -0.010381601 0.019560054 0.023097208 0.009249298
-0.015527536 -0.09793926 -0.023450585 -0.078148074 -0.015327462 -0.095389485 0.06888099 -0.01853218
0.10094103 0.21866165 0.07026098 0.07211433 -0.09073167 -0.015457697 0.01722239 -0.04455412
-0.14933585 0.04882563 0.021481276 0.0137690455 -0.020694643 0.007002946 -0.017073996 -0.06099658
0.103421986 0.053373966 -0.04539674 -0.1203106 -0.05829634 0.06488848 -0.010424054 0.08892208
0.003150642 -0.05000671 -0.069019824 0.013789774 0.03618662 0.057569467 -0.0032044228 -0.13303825
-0.08772134 0.08403926 -0.07050486 0.059460077 0.04159736 0.061252564 -0.010910042 -0.11230037
0.05209552 -0.07997481 -0.15118618 0.037274882 0.027150158 -0.116569504 -0.0025644312 -0.07118023
-0.07951476 -0.00848154 -0.033490475 -0.020097982 0.09569486 -0.06311194 -0.038105343 0.043272853
-0.017082792 0.15530513 0.15342626 0.0056310473 -0.15208519 -0.14788017 0.06756808 0.06708088

decode.layers.0.feed_forward_block.linear2.bias f4 [32]
00000000: 481c 3c3d bca2 783d 7ba3 373c 08fb 70bc
00000010: 2153 3abe ef61 96bd 0391 813a 77e2 b0bb
00000020: 331e f5bc d82a 313a 0541 e43b 490a 2d3d
00000030: d74d 853d 040b 66bd 7786 b2bc e7b2 a23d
00000040: 081c 88bc 89f7 b03d cad5 983c 6cdd 9a3d
00000050: 485a 95bd 08c0 08bd d5db 93bb 11b6 033c
00000060: 0257 9d3d b48a 783d e128 1ebd 0903 00be
00000070: e132 9c3d 1af3 5a3d a601 20bd af6a 79bc
0.04592541 0.06070207 0.01120841 -0.014708288 -0.18195774 -0.07342898 0.0009885136 -0.0053980905
-0.029921627 0.00067583984 0.0069657587 0.042246137 0.065089874 -0.05616285 -0.021792633 0.07944279
-0.016614929 0.086409636 0.01865663 0.07561764 -0.072926104 -0.03338626 -0.00451229 0.0080390135
0.07682611 0.060679153 -0.038613204 -0.12501158 0.07626892 0.053454496 -0.039064072 -0.015223189
